tour_travel_customer.tflite (tflite, 12312 bytes, 5 tensors)

arith.constant f4 [1, 32]
0	0xbe43bc55	-0.19114812
1	0x3ee86102	0.4538651
2	0x3f3ed998	0.7455077
3	0xbea7879f	-0.32720658
4	0x3ebbb06a	0.3665803
5	0xbeac4fba	-0.33654577
6	0x3e4dc708	0.20095456
7	0x3f05013f	0.51955026
8	0x3ea5c081	0.3237343
9	0xbf142d02	-0.57881176
10	0x3e916473	0.2839695
11	0x3e37270b	0.17885987
12	0x3d809752	0.06278862
13	0xbf1c81e5	-0.61135703
14	0xbe6c159c	-0.23055118
15	0xbe82d2ac	-0.25551355
16	0x3e9bbb91	0.3041654
17	0x3ebfe40d	0.37478676
18	0xbe89b681	-0.26897052
19	0x3eaa524a	0.33265907
20	0xbef02493	-0.46902904
21	0xbf1e840e	-0.6192025
22	0x3eb9e139	0.36304644
23	0x3effdf13	0.4997488
24	0xbf037a42	-0.51358426
25	0x3eaace0b	0.33360323
26	0xbf10d021	-0.5656758
27	0xbef204dd	-0.47269335
28	0x3ef13388	0.47109628
29	0x3e5d5366	0.21613845
30	0x3f1c90d5	0.61158496
31	0xbec96f0a	-0.3934253

arith.constant1 f4 [32, 64]
0	0x3e0389aa	0.12845483
1	0xbe8733ed	-0.26406804
2	0x3e202c90	0.15641999
3	0xbea0d173	-0.31409797
4	0x3e79d60e	0.24398062
5	0x3e2087c4	0.1567679
6	0x3d320003	0.043457042
7	0x3de29887	0.110642485
8	0x3c4321a2	0.011909874
9	0xbbc10b30	-0.005891226
10	0xbdf6ed11	-0.120569356
11	0x3cbdbf72	0.023162577
12	0x3e46b23c	0.19403929
13	0xbdb64b40	-0.089010715
14	0x3e9291cd	0.28626862
15	0xbcb879fa	-0.0225191
16	0x3d80d05a	0.0628974
17	0x3e70356e	0.23457882
18	0xbe93677e	-0.28789896
19	0x3e3c81a8	0.18408835
20	0x3ed2e3ac	0.41189325
21	0x3e62dacd	0.22153778
22	0x3ceb6c4c	0.028738163
23	0xbe6e5e43	-0.23278145
24	0xbe085312	-0.13312939
25	0x3e8fe43b	0.28103814
26	0x3e2c77a9	0.16842522
27	0xbe4bf971	-0.19919373
28	0xbd8cab00	-0.06868553
29	0xbe6d34a7	-0.23164617
30	0x3e826dd6	0.25474423
31	0x3c7627ea	0.015024165
32	0xbb488290	-0.00305954
33	0x3dfbe3cb	0.122993074
34	0x3e4b2ec9	0.19842066
35	0x3e2b84f1	0.16749932
36	0x3ec93485	0.39297882
37	0x3e9255c7	0.28581068
38	0x3de1c99c	0.11024782
39	0x3d170776	0.03687235
40	0xbe55050a	-0.20802703
41	0xbd531de7	-0.05154219
42	0xbd838988	-0.064227164
43	0xbd972030	-0.07379186
44	0x3e899669	0.26872566
45	0x3e084a26	0.13309535
46	0x3d2b23a8	0.04178205
47	0x3ddf6df5	0.109096445
48	0x3f02e528	0.51130915
49	0x3e707399	0.23481597
50	0x3ccbe918	0.024891421
51	0xbc6061be	-0.013695179
52	0x3dcb163d	0.09916351
53	0x3e98d588	0.2985041
54	0xbdc2194e	-0.09477483
55	0x3e39fff4	0.18164045
56	0x3eb5c2f5	0.35500303
57	0x3e1ab4eb	0.15108077
58	0xbd6f17aa	-0.058372177
59	0x3d45847c	0.04822205
60	0x3e0048da	0.1252779
61	0x3ee39908	0.4445269
62	0xbcf0b1bf	-0.029381631
63	0x3d8ead60	0.069666624
64	0xbdb8dabe	-0.09026097
65	0x3e6b493e	0.22977158
66	0xbe995866	-0.29950255
67	0x3e314f90	0.17315507
68	0x3e5a4f77	0.21319376
69	0x3cf3ad04	0.029745586
70	0x3c54d979	0.012991303
71	0xbe11c92d	-0.14236899
72	0x3d5059d4	0.050866917
73	0xbf03aedf	-0.5143871
74	0x3dec4b14	0.115377575
75	0xbdb066b1	-0.08613337
76	0xbe090cc7	-0.1338378
77	0x3cd48e61	0.025946798
78	0x3be403d8	0.006958466
79	0xbe42b006	-0.1901246
80	0xbed5a943	-0.417307
81	0x3e913144	0.283579
82	0x3d93f0fb	0.07223698
83	0x3e9a5929	0.3014615
84	0x3d8fc038	0.07019085
85	0xbe0e3238	-0.13886344
86	0xbe1a78bf	-0.15085123
87	0xbe5f7cce	-0.21824953
88	0x3d312f17	0.0432578
89	0x3dc17142	0.0944543
90	0xbd6eb8ca	-0.058281697
91	0xbe352143	-0.1768847
92	0x3db78990	0.08961785
93	0xbde71205	-0.11282734
94	0xbe7531ef	-0.2394483
95	0xbe246c65	-0.16056974
96	0x3e892eff	0.26793668
97	0xbe2118ab	-0.15732066
98	0xbd393594	-0.04521711
99	0xbceb42d2	-0.028718386
100	0xbd3d7acb	-0.046259683
101	0x3e644500	0.22291946
102	0xbd91d174	-0.07120028
103	0x3e68cb6e	0.22733852
104	0x3d0da2d5	0.034579117
105	0xbe73c60a	-0.23806015
106	0x3e86ed02	0.26352698
107	0xbde2651b	-0.110544406
108	0xbe75f8aa	-0.24020639
109	0xbe5c1a10	-0.21494317
110	0x3e2b91db	0.16754858
111	0xbe378465	-0.17921598
112	0xbcd47571	-0.025934907
113	0x3e86d5c1	0.26334956
114	0xbd9fb4e8	-0.07798177
115	0x3e7a2ea9	0.24431862
116	0xbe7322b2	-0.23743704
117	0x3e08323b	0.13300411
118	0x3e12cab9	0.14335145
119	0xbdfda8cc	-0.12385711
120	0xbe8d6f53	-0.27623996
121	0xbe81648b	-0.2527202
122	0xbe3d8b32	-0.1851013
123	0xbe857919	-0.26068953
124	0xbebfca72	-0.3745914
125	0xbdce0a0a	-0.100605085
126	0x3ded866a	0.11597903
127	0xbe88eeaf	-0.267446
128	0xbe52d85d	-0.20590349
129	0xbea66010	-0.32495165
130	0xbe897142	-0.2684422
131	0x3e4d7679	0.20064725
132	0xbe41e0f0	-0.18933463
133	0xbea33a05	-0.31880203
134	0xbb1eb26b	-0.0024215232
135	0xbe6e4663	-0.23269038
136	0x3eb08090	0.34473085
137	0x3daf592e	0.085619316
138	0x3da2192f	0.0791496
139	0x3d832abc	0.06404635
140	0xbd94d522	-0.07267214
141	0x3d1efd91	0.03881604
142	0xbeb33564	-0.3500167
143	0xbda7f177	-0.08200353
144	0xbe554f9c	-0.2083115
145	0x3bf9b590	0.007620521
146	0xbe9ad2a5	-0.30238834
147	0xbda7fbde	-0.08202337
148	0xbcfc6063	-0.03080768
149	0xbdefcf03	-0.11709406
150	0x3e0d8b45	0.13822658
151	0x3e34154d	0.1758625
152	0xbbbeffe8	-0.0058288462
153	0xbd73fee6	-0.059569262
154	0xbe5a0124	-0.21289498
155	0x3e722c48	0.23649704
156	0xbd6361f3	-0.055513334
157	0x3da5c2f1	0.08093823
158	0x3e95b786	0.2924158
159	0x3e61f639	0.22066583
160	0xbea832f6	-0.3285138
161	0x3d681ebb	0.05666993
162	0xbe7a0ff0	-0.24420142
163	0x3eb087f6	0.3447873
164	0xbe827cde	-0.2548589
165	0xbefa3df7	-0.488754
166	0xbe888704	-0.2666551
167	0xbb1645a5	-0.0022929695
168	0xbeb7ddca	-0.359114
169	0x3d934417	0.071907215
170	0x3e7e436a	0.24830404
171	0x3ee3dfcc	0.4450668
172	0xbe0f6788	-0.14004338
173	0x3e615c18	0.22007787
174	0xbe8862a7	-0.26637766
175	0xbe539e1d	-0.20665784
176	0xbe0de55c	-0.13857025
177	0x3eb1889d	0.3467454
178	0x3da4c50f	0.080453984
179	0xbe24e072	-0.16101244
180	0xbe878904	-0.26471722
181	0xbe8fa90f	-0.2805867
182	0xbdd08a18	-0.10182589
183	0xbe796156	-0.24353537
184	0xbe94ecac	-0.29086816
185	0x3e245aa9	0.16050209
186	0x3e5cb17b	0.21552078
187	0xbe1bb700	-0.15206528
188	0x3e8a21c6	0.26978892
189	0xbec31f16	-0.38109654
190	0xbebfd79a	-0.37469178
191	0x3e785f8c	0.24255198
192	0xbd81603a	-0.06317182
193	0x3e43bf0a	0.19115844
194	0xbe0d8e90	-0.13823915
195	0xbd88a771	-0.06672562
196	0xbe19cc04	-0.15019232
197	0x3d972fb6	0.07382147
198	0xbe93859d	-0.28812876
199	0x3d1f9680	0.038961887
200	0xbeb32f44	-0.34996998
201	0x3e763ac7	0.2404586
202	0xbdd81fc7	-0.10552936
203	0x3db715c9	0.08939702
204	0x3e976855	0.29571787
205	0x3e3636c1	0.17794324
206	0xbdb58f7e	-0.088652596
207	0x3eae67aa	0.34063464
208	0x3e488242	0.1958094
209	0x3dcb4dac	0.09926924
210	0xbe791cf6	-0.24327454
211	0x3e44f706	0.19234857
212	0x3ee302d4	0.44338095
213	0x3e348f25	0.1763273
214	0x3df262e3	0.118352674
215	0xbecfe453	-0.40603885
216	0xbc0a0dc1	-0.008426131
217	0x3e627487	0.22114764
218	0xbde26c01	-0.11055756
219	0x3d1a9a29	0.037744675
220	0xbb4b830c	-0.0031053452
221	0xbd483b27	-0.048884537
222	0xbd0b84cf	-0.034062203
223	0xbd82fec2	-0.063962474
224	0x3eb021a3	0.34400663
225	0x3e4b725b	0.19867842
226	0xbdf3c027	-0.119018845
227	0x3e56acc1	0.20964338
228	0x3eed6703	0.46367654
229	0x3eb8037e	0.35940164
230	0x3cf630ae	0.03005251
231	0xbd0c4ce9	-0.034253035
232	0xbe85afcc	-0.26110685
233	0xbddc065c	-0.107434005
234	0x3e650556	0.22365317
235	0xbdb4e37b	-0.08832451
236	0x3d6081a1	0.054811124
237	0xbe82107c	-0.25403202
238	0x3dabba53	0.08385148
239	0x3d23e6d6	0.040015064
240	0x3eb74ea3	0.35802183
241	0x3e5cc65d	0.21560045
242	0xbe3811dd	-0.17975564
243	0xbd185112	-0.03718669
244	0x3eb13208	0.34608483
245	0x3e522817	0.20523106
246	0xbe4c4680	-0.19948769
247	0x3e456179	0.19275464
248	0xbd4e5bd2	-0.050380535
249	0x3e5aca82	0.21366313
250	0x3db0924e	0.086216554
251	0x3d56692b	0.05234639
252	0x3d85e157	0.06537121
253	0xbb2f953e	-0.0026791836
254	0x3bb2dd98	0.005458545
255	0x3e09a615	0.13442262

sequential_1/dense_1_2/BiasAdd/ReadVariableOp f4 [32]
0	0x3e21f284	0.15815169
1	0x3c93dfe1	0.01805109
2	0xbd495ce3	-0.04916085
3	0x3dca6fc0	0.09884596
4	0xbd3a638e	-0.0455051
5	0x3dcb449d	0.09925196
6	0xbd0eb5c8	-0.03484133
7	0xbd1083ce	-0.03528195
8	0xbda968c3	-0.08271935
9	0x3d92b40a	0.07163246
10	0x3d5037e0	0.050834537
11	0xbc953d50	-0.018217713
12	0xbdc33046	-0.09530692
13	0x3db62c3d	0.088951565
14	0x3de7cf29	0.113188095
15	0x3dae830c	0.08521089
16	0x3c4db65a	0.012555683
17	0xbc8f0134	-0.017456628
18	0x3e13253d	0.14369674
19	0xbd87d907	-0.066331916
20	0x3da5b020	0.08090234
21	0x3dfe8979	0.124285646
22	0xbc02bb0a	-0.007979164
23	0x3d5797df	0.05263507
24	0x3e0d221c	0.13782543
25	0x3c7a4b2d	0.015276712
26	0x3da8db5a	0.08244963
27	0x3dbe92d1	0.09305347
28	0x3d2f82ba	0.04284928
29	0xbdb4bbc1	-0.08824874
30	0xbd2ec1f9	-0.042665455
31	0x3db7fd38	0.089838445

sequential_1/dense_1/BiasAdd/ReadVariableOp f4 [64]
0	0xbcc51428	-0.024057463
1	0xbd619aa2	-0.05507911
2	0xbd4e0946	-0.050301813
3	0xbdf38fae	-0.11892639
4	0xbdbe24e6	-0.092843816
5	0xbd6d1ca8	-0.057888657
6	0xbe07e637	-0.13271414
7	0xbe0df30f	-0.13862251
8	0xbe457541	-0.1928301
9	0xbd90e601	-0.0707512
10	0xbdc2aa05	-0.09505085
11	0x3d3dea46	0.046366
12	0xbd10d1b7	-0.03535625
13	0xbd322521	-0.04349244
14	0x3dec1e5f	0.1152923
15	0xbb126f99	-0.002234435
16	0x3cfc36eb	0.030787906
17	0x39d1160f	0.0003988002
18	0x3a1a998f	0.0005897516
19	0x3c6134bd	0.013745484
20	0xbcdbbf38	-0.026824579
21	0xbd1129f3	-0.035440397
22	0xbccd9587	-0.025095714
23	0xbe3a999b	-0.18222658
24	0xbe0a05a0	-0.13478708
25	0xbd3c80b6	-0.046021186
26	0xbc40f660	-0.01177749
27	0xbe04cb27	-0.12968121
28	0xbbdd9433	-0.0067620515
29	0xbdc9f88f	-0.09861862
30	0x3da0cea4	0.078519136
31	0xbd4735b3	-0.048635196
32	0xbce82629	-0.028338509
33	0xbd0b2df3	-0.033979367
34	0x3d4b6ac8	0.04966238
35	0xbcfe6ec4	-0.031058677
36	0xbcaf36b3	-0.021388387
37	0xbd3f993d	-0.046777
38	0x3cc95632	0.024577234
39	0xbc25603e	-0.010093747
40	0x3d1d232d	0.038363624
41	0xbda0ce30	-0.07851827
42	0x3de0a700	0.10969353
43	0xbe622b5e	-0.22086856
44	0x3d0b82c9	0.034060273
45	0xbcf4c87a	-0.02988075
46	0xbaa9beb8	-0.0012950515
47	0xbd35ee62	-0.044416793
48	0xbe803ed7	-0.25047943
49	0xbd28198f	-0.04104
50	0xbde03ce7	-0.10949116
51	0xbce01e73	-0.02735827
52	0x3c8daa45	0.017293105
53	0xbddbfbba	-0.107413724
54	0xbe28bb7c	-0.1647777
55	0xbda7fe0c	-0.082027525
56	0xbca30026	-0.019897532
57	0x3d7ffca6	0.062496804
58	0xbcb3448f	-0.021883277
59	0xbd7038aa	-0.05864779
60	0x3cfce337	0.030870063
61	0xbc9c2afe	-0.019063469
62	0x3b3e1ca2	0.0029008766
63	0xbb454187	-0.0030098872

sequential_1/dense_1/MatMul f4 [64, 6]
0	0x3e01008a	0.12597862
1	0xbe875e6f	-0.26439235
2	0x3eb5eb96	0.355313
3	0x3d9cdc82	0.07659246
4	0x3e2eb3bb	0.17060749
5	0x3e8807cd	0.26568452
6	0x3e6dd78f	0.2322676
7	0x3dbca414	0.09210983
8	0x3df81362	0.12113072
9	0x3e22b8c8	0.15890801
10	0x3e2c0263	0.16797785
11	0x3e1f26c9	0.15542139
12	0x3e034df7	0.1282271
13	0x3ea8ddd7	0.3298175
14	0x3e964840	0.29351997
15	0x3e8441c5	0.25831428
16	0xbe704937	-0.23465429
17	0x3be139c8	0.006873343
18	0xbc11ce0a	-0.008899221
19	0x3e5c35e6	0.21504936
20	0xbe2734fa	-0.16328803
21	0x3dd9d5e4	0.106364995
22	0x3d8b5293	0.06802859
23	0xbd75c462	-0.06000174
24	0x3e5d5178	0.21613109
25	0x3de1d5b6	0.1102709
26	0x3c060b32	0.00818138
27	0x3e13fdb2	0.14452246
28	0xbe51ba3a	-0.20481196
29	0xbedd724b	-0.4325126
30	0x3db3dd22	0.08782412
31	0xbe2e9d05	-0.17052086
32	0xbec139bd	-0.37739363
33	0xbce3404c	-0.02774062
34	0x3e75d555	0.24007161
35	0xbd4978b6	-0.049187385
36	0x3ef2268f	0.47295043
37	0x3e08d41d	0.13362165
38	0xbdb10591	-0.0864364
39	0x3e7160ec	0.23572129
40	0x3aa75f3f	0.0012769474
41	0x3d6d5d08	0.05795005
42	0x3e00425e	0.12525317
43	0xbd962f0d	-0.07333193
44	0xbec9f9b3	-0.39448318
45	0xbe618514	-0.22023422
46	0x3e55524e	0.20832178
47	0xbddd4875	-0.10804836
48	0xbebd74ef	-0.37003276
49	0x3de5fc65	0.11229781
50	0x3da63007	0.08114629
51	0xbd361ff1	-0.044464055
52	0x3c11e8e4	0.008905623
53	0xbd9580b0	-0.07299936
54	0xbb9bfe92	-0.0047605718
55	0xbe38e79d	-0.18057103
56	0x3ece401b	0.40283284
57	0xbe894bbe	-0.268156
58	0x3d515f58	0.051116318
59	0x3da59af2	0.08086194
60	0xbeb72cbf	-0.35776326
61	0x3e22bce7	0.15892373
62	0xbc805b34	-0.015668489
63	0xbe54ffdc	-0.20800728
64	0x3dc23437	0.094826154
65	0xbe51d28e	-0.20490476
66	0x3da52632	0.08063926
67	0xbe22c44f	-0.15895198
68	0x3e4c1ea2	0.1993356
69	0xbe63c889	-0.22244467
70	0xbd21f898	-0.039543718
71	0xbe9b1a7a	-0.30293638
72	0x3b46b0da	0.0030317814
73	0x3e120dd6	0.1426309
74	0x3ebc5ea4	0.36790955
75	0xbe89b0b5	-0.2689263
76	0xba881ee2	-0.001038518
77	0xbe7d0f3c	-0.24712843
78	0xbe530270	-0.20606399
79	0xbe16082f	-0.1465156
80	0xbaa074b1	-0.0012241808
81	0x3e9b877b	0.303768
82	0x3e9e4cc3	0.3091794
83	0xbb5c041a	-0.003357178
84	0x3e904847	0.28180143
85	0x3d626f80	0.055282116
86	0x3d35edf8	0.044416398
87	0x3e0e11d7	0.13873993
88	0xbed40a77	-0.41414234
89	0x3d6e9d21	0.05825532
90	0x3e1eb880	0.15500069
91	0xbea63372	-0.32461125
92	0xbe36e329	-0.17860092
93	0xbe0de59e	-0.13857123
94	0xbe5ee4e7	-0.21767007
95	0x3eaadd28	0.33371854
96	0x3e56f019	0.20990027
97	0xbdd3a1af	-0.10333573
98	0x3e56f81e	0.20993087
99	0x3e7b2e82	0.2452946
100	0xbe861009	-0.2618411
101	0xbe39f491	-0.18159701
102	0x3e6d54db	0.23176901
103	0xbe0a2c56	-0.13493475
104	0xbdaf1011	-0.08547986
105	0xbdab4179	-0.08362097
106	0xbe559e7b	-0.20861237
107	0xbe93ae1f	-0.2884378
108	0x3eba5112	0.36389977
109	0xbd1604f7	-0.03662583
110	0xbec82cd0	-0.3909669
111	0x3e572dfb	0.21013634
112	0x3e46cbc9	0.19413675
113	0xbc9d0200	-0.019165993
114	0x3d2230d6	0.039597355
115	0x3dda20c5	0.106507815
116	0x3d854477	0.06507199
117	0x3e583b89	0.21116461
118	0x3e82df60	0.25561047
119	0x3e85465c	0.26030242
120	0x3e1d5484	0.15364271
121	0xbea601f2	-0.3242336
122	0xbc62bcd7	-0.013838968
123	0xbf09d13f	-0.5383491
124	0xbd427985	-0.04747917
125	0x3e60aa8a	0.21940055
126	0x3d86eba6	0.06587915
127	0xbde2727f	-0.11056995
128	0x3e8de290	0.27711916
129	0x3e6c9482	0.23103526
130	0x3dd50986	0.10402207
131	0x3e194bbe	0.149703
132	0xbe77f559	-0.24214686
133	0x3df65eb5	0.12029783
134	0xbd14151a	-0.036152937
135	0xbe86d6a1	-0.26335624
136	0x3d757753	0.05992825
137	0x3e91b506	0.28458422
138	0xbebb0147	-0.36524412
139	0x3e0948df	0.13406704
140	0x3dc489b8	0.0959658
141	0xbdc11a2c	-0.0942882
142	0xbdbeaa0c	-0.093097776
143	0x3c9d28a7	0.019184424
144	0xbd069696	-0.032858454
145	0x3e8b07e1	0.2715445
146	0xbe6bb090	-0.23016572
147	0x3cc05674	0.023478724
148	0x3e31a158	0.17346704
149	0x3c465420	0.012105018
150	0x3b9ca7e4	0.0047807563
151	0x3e6725ec	0.2257306
152	0x3ec5937e	0.3858909
153	0x3d05b9b8	0.03264782
154	0x3e8791ff	0.26478574
155	0xbaed863b	-0.0018121669
156	0x3edad7c8	0.42742753
157	0x3d109cb0	0.03530568
158	0xbdeb5da3	-0.11492469
159	0x3e0f539e	0.13996741
160	0x3d979cd6	0.07402961
161	0x3d8f11ab	0.06985792
162	0xbee723ff	-0.4514465
163	0x3de48742	0.11158611
164	0xbbf7b43b	-0.007559327
165	0xbd7b22f0	-0.061312616
166	0x3c8f590b	0.017498514
167	0x3cda2806	0.026630413
168	0x3b3f6b25	0.002920815
169	0xbe02f9ee	-0.12790653
170	0x3e80a948	0.2512915
171	0xbdb5296a	-0.0884579
172	0x3e14b650	0.14522672
173	0xbcbb1134	-0.022835352
174	0xbe01c937	-0.12674414
175	0x3e2f91be	0.1714544
176	0xbe8dc599	-0.27689818
177	0x3dc61d96	0.09673612
178	0x3e4cda71	0.20005204
179	0x3ddb1f5c	0.10699341
180	0x3b2123f7	0.0024588087
181	0x3e0aa1aa	0.13538232
182	0x3ea7a7e8	0.3274529
183	0xbe684f0b	-0.22686402
184	0xbb42c53a	-0.0029719607
185	0xbdb557bc	-0.08854625
186	0xbea24452	-0.3169275
187	0xbe07a1a3	-0.13245253
188	0xbd51d728	-0.05123058
189	0x3e28b2d8	0.16474473
190	0xbdf1eeae	-0.11813103
191	0xbe2b9861	-0.16757347
192	0x3e8a77f4	0.27044642
193	0xbdd02400	-0.101631165
194	0x3e72b560	0.23702002
195	0xbec4df76	-0.38451737
196	0x3d63ee9b	0.055647474
197	0xbc2d656a	-0.010583261
198	0x3e6fd659	0.23421611
199	0x3e056589	0.13027014
200	0x3eb0ed2e	0.34555954
201	0xbe94914b	-0.290171
202	0xbdb25e75	-0.087094225
203	0x3dcfa9e4	0.10139826
204	0xbb56755d	-0.0032723763
205	0xbe829cf8	-0.25510383
206	0x3e85172b	0.25994238
207	0x3d8e5686	0.06950097
208	0x3e4701fc	0.1943435
209	0xbe89c58b	-0.26908526
210	0xbe0d5b29	-0.13804306
211	0xbe510075	-0.2041033
212	0xbe8f74d8	-0.28018832
213	0x3d75b052	0.059982605
214	0xbe8fd969	-0.28095558
215	0xbc5a5b83	-0.013327482
216	0x3e5056d0	0.20345616
217	0xbeb92097	-0.36157677
218	0x3ba20b43	0.00494519
219	0xbf1503cb	-0.5820891
220	0xbd6ac5cc	-0.05731754
221	0x3e6ac323	0.22926001
222	0x3e9050e0	0.28186703
223	0xbe9cc1ed	-0.30616704
224	0x3d66230d	0.05618577
225	0xbee34d8c	-0.443951
226	0xbc6a3820	-0.014295608
227	0xbc90be19	-0.01766877
228	0x3ef1202c	0.47094858
229	0x3db924f4	0.090402514
230	0xbe2c0980	-0.16800499
231	0x3e10d98e	0.1414549
232	0x3df8f92d	0.121569015
233	0x3dfdd027	0.123932175
234	0x3e2b2b82	0.16715816
235	0xbe93be47	-0.28856108
236	0x3e25be2e	0.16185829
237	0xbe8c44be	-0.27396196
238	0x3e8f9ba1	0.28048423
239	0xbc750bfe	-0.014956472
240	0x3e9c642b	0.30545172
241	0xbda97e79	-0.08276076
242	0xbe1fea77	-0.15616785
243	0x3d9d1a4e	0.07671033
244	0x3e16769d	0.14693685
245	0xbe0a3026	-0.1349493
246	0xbe7e9a81	-0.24863626
247	0xbd82a719	-0.063795276
248	0xbe01e975	-0.12686713
249	0x3da173d7	0.07883423
250	0xbd68d2d6	-0.056841694
251	0xbe5c7c7e	-0.21531865
252	0x3b134784	0.0022473047
253	0xbe9cebce	-0.30648655
254	0xbe8a64a5	-0.2702991
255	0xbe49843a	-0.19679347
